ST Edge AI Core v2.2.0-20266 2adc00962
Created date          : 2025-10-09 14:29:36
Parameters            : generate --target stm32f4 --name frfconv -m C:/Users/user/Downloads/ST_FRFconv-TDS_1000.onnx --compression high --verbosity 1 --workspace C:/Users/user/AppData/Local/Temp/mxAI_workspace6182040432853007706781049855475920 --output C:/Users/user/.stm32cubemx/frfconv_output

Exec/report summary (generate)
-----------------------------------------------------------------------------------------------------------
model file         :   C:\Users\user\Downloads\ST_FRFconv-TDS_1000.onnx                                    
type               :   onnx                                                                                
c_name             :   frfconv                                                                             
compression        :   high                                                                                
options            :   allocate-inputs, allocate-outputs                                                   
optimization       :   balanced                                                                            
target/series      :   stm32f4                                                                             
workspace dir      :   C:\Users\user\AppData\Local\Temp\mxAI_workspace6182040432853007706781049855475920   
output dir         :   C:\Users\user\.stm32cubemx\frfconv_output                                           
model_fmt          :   float                                                                               
model_name         :   ST_FRFconvTDS_1000                                                                  
model_hash         :   0x26475cc1b24c812121e420354d70db54                                                  
params #           :   8,830 items (34.49 KiB)                                                             
-----------------------------------------------------------------------------------------------------------
input 1/1          :   'input', f32(1x2048x1), 8.00 KBytes, activations                                    
output 1/1         :   'output', f32(1x8), 32 Bytes, activations                                           
macc               :   1,905,462                                                                           
weights (ro)       :   35,056 B (34.23 KiB) (1 segment) / -264(-0.7%) vs float model                       
activations (rw)   :   32,776 B (32.01 KiB) (1 segment) *                                                  
ram (total)        :   32,776 B (32.01 KiB) = 32,776 + 0 + 0                                               
-----------------------------------------------------------------------------------------------------------
(*) 'input'/'output' buffers are allocated in the activations buffer

Model name - ST_FRFconvTDS_1000
------ ---------------------------------------------------------- ------------------ ------------- --------- -------------------------------- --- -------------- -------------------- ---------------------------- 
m_id   layer (type,original)                                      oshape             param/size         macc                     connected to   | c_size         c_macc               c_type                       
------ ---------------------------------------------------------- ------------------ ------------- --------- -------------------------------- --- -------------- -------------------- ---------------------------- 
24     _Constant_2_output_0 (Placeholder, Pow)                    []                 1/4                                                        |                +10(+100.0%)         Eltwise/pow_[14]             
------ ---------------------------------------------------------- ------------------ ------------- --------- -------------------------------- --- -------------- -------------------- ---------------------------- 
1      _Constant_3_output_0 (Placeholder, Pow)                    []                 1/4                                                        | -4(-100.0%)    +4,096(+100.0%)      Nonlinearity_[27]            
------ ---------------------------------------------------------- ------------------ ------------- --------- -------------------------------- --- -------------- -------------------- ---------------------------- 
2      _Constant_4_output_0 (Placeholder, Pow)                    []                 1/4                                                        | -4(-100.0%)    +2,048(+100.0%)      Reduce_[28]                  
------ ---------------------------------------------------------- ------------------ ------------- --------- -------------------------------- --- -------------- -------------------- ---------------------------- 
3      _Constant_5_output_0 (Placeholder, Pow)                    []                 1/4                                                        | -4(-100.0%)    +10,240(+100.0%)     Eltwise/div_[32]             
------ ---------------------------------------------------------- ------------------ ------------- --------- -------------------------------- --- -------------- -------------------- ---------------------------- 
87     linear_0_weight (Placeholder, Gemm)                        [b:8,c:12]         96/384                                                     | -240(-62.5%)   +104(+100.0%)        Dense_[o][73]                
       linear_0_bias (Placeholder, Gemm)                          [b:8]              8/32                                                       | -32(-100.0%)                        
------ ---------------------------------------------------------- ------------------ ------------- --------- -------------------------------- --- -------------- -------------------- ---------------------------- 
0      input (Input, )                                            [b:1,h:2048,c:1]                                                              |                                     
------ ---------------------------------------------------------- ------------------ ------------- --------- -------------------------------- --- -------------- -------------------- ---------------------------- 
1      _Abs_output_0 (Nonlinearity, Abs)                          [b:1,h:2048,c:1]                     4,096                            input   |                -4,096(-100.0%)      
------ ---------------------------------------------------------- ------------------ ------------- --------- -------------------------------- --- -------------- -------------------- ---------------------------- 
2      _ReduceMax_output_0 (Reduce, ReduceMax)                    [b:1,h:1,c:1]                        2,048                    _Abs_output_0   |                -2,048(-100.0%)      
------ ---------------------------------------------------------- ------------------ ------------- --------- -------------------------------- --- -------------- -------------------- ---------------------------- 
3      _Div_output_0 (Eltwise, Div)                               [b:1,h:2048,c:1]                    10,240                            input   |                -10,240(-100.0%)     
                                                                                                                          _ReduceMax_output_0   | 
------ ---------------------------------------------------------- ------------------ ------------- --------- -------------------------------- --- -------------- -------------------- ---------------------------- 
4      _ReduceMean_output_0 (Reduce, ReduceMean)                  [b:1,h:1,c:1]                        4,096                            input   | +8(+100.0%)    -2,046(-50.0%)       Reduce_/ScaleBias_[16, 17]   
------ ---------------------------------------------------------- ------------------ ------------- --------- -------------------------------- --- -------------- -------------------- ---------------------------- 
5      _ReduceMean_1_output_0 (Reduce, ReduceMean)                [b:1,h:1,c:1]                        4,096                            input   | +8(+100.0%)    -2,046(-50.0%)       Reduce_/ScaleBias_[4, 5]     
------ ---------------------------------------------------------- ------------------ ------------- --------- -------------------------------- --- -------------- -------------------- ---------------------------- 
10     _Sub_output_0 (Eltwise, Sub)                               [b:1,h:2048,c:1]                     2,048                            input   |                                     Eltwise/sub_[6]              
                                                                                                                       _ReduceMean_1_output_0   | 
------ ---------------------------------------------------------- ------------------ ------------- --------- -------------------------------- --- -------------- -------------------- ---------------------------- 
11     _Mul_output_0 (Eltwise, Mul)                               [b:1,h:2048,c:1]                     2,048                    _Sub_output_0   |                                     Eltwise/mul_[7]              
                                                                                                                                _Sub_output_0   | 
------ ---------------------------------------------------------- ------------------ ------------- --------- -------------------------------- --- -------------- -------------------- ---------------------------- 
12     _ReduceMean_2_output_0 (Reduce, ReduceMean)                [b:1,h:1,c:1]                        4,096                    _Mul_output_0   |                -4,096(-100.0%)      
------ ---------------------------------------------------------- ------------------ ------------- --------- -------------------------------- --- -------------- -------------------- ---------------------------- 
13     _Cast_output_0_const (Placeholder, Cast)                   [b:1]              1/4                                                        | -4(-100.0%)                         
------ ---------------------------------------------------------- ------------------ ------------- --------- -------------------------------- --- -------------- -------------------- ---------------------------- 
14     _Mul_1_output_0 (Eltwise, Mul)                             [b:1,h:1,c:1]                            1           _ReduceMean_2_output_0   | +8(+100.0%)    +2,049(+204900.0%)   Reduce_/ScaleBias_[8, 9]     
                                                                                                                         _Cast_output_0_const   | 
------ ---------------------------------------------------------- ------------------ ------------- --------- -------------------------------- --- -------------- -------------------- ---------------------------- 
16     _Sub_1_output_0_const (Placeholder, Sub)                   [b:1]              1/4                                                        | -4(-100.0%)                         
------ ---------------------------------------------------------- ------------------ ------------- --------- -------------------------------- --- -------------- -------------------- ---------------------------- 
17     _Div_1_output_0 (Eltwise, Div)                             [b:1,h:1,c:1]                            5                  _Mul_1_output_0   | +4(+100.0%)                         Eltwise/div_[10]             
                                                                                                                        _Sub_1_output_0_const   | 
------ ---------------------------------------------------------- ------------------ ------------- --------- -------------------------------- --- -------------- -------------------- ---------------------------- 
18     _Sqrt_output_0 (Nonlinearity, Sqrt)                        [b:1,h:1,c:1]                           12                  _Div_1_output_0   |                                     Nonlinearity_[11]            
------ ---------------------------------------------------------- ------------------ ------------- --------- -------------------------------- --- -------------- -------------------- ---------------------------- 
19     _Mul_2_output_0 (Eltwise, Mul)                             [b:1,h:2048,c:1]                     2,048                            input   |                                     Eltwise/mul_[0]              
                                                                                                                                        input   | 
------ ---------------------------------------------------------- ------------------ ------------- --------- -------------------------------- --- -------------- -------------------- ---------------------------- 
20     _ReduceMean_3_output_0 (Reduce, ReduceMean)                [b:1,h:1,c:1]                        4,096                  _Mul_2_output_0   | +8(+100.0%)    -2,046(-50.0%)       Reduce_/ScaleBias_[1, 2]     
------ ---------------------------------------------------------- ------------------ ------------- --------- -------------------------------- --- -------------- -------------------- ---------------------------- 
21     _Sqrt_1_output_0 (Nonlinearity, Sqrt)                      [b:1,h:1,c:1]                           12           _ReduceMean_3_output_0   |                                     Nonlinearity_[3]             
------ ---------------------------------------------------------- ------------------ ------------- --------- -------------------------------- --- -------------- -------------------- ---------------------------- 
22     _Div_2_output_0 (Eltwise, Div)                             [b:1,h:1,c:1]                            5              _ReduceMax_output_0   |                                     Eltwise/div_[29]             
                                                                                                                             _Sqrt_1_output_0   | 
------ ---------------------------------------------------------- ------------------ ------------- --------- -------------------------------- --- -------------- -------------------- ---------------------------- 
24     _Pow_output_0 (Eltwise, Pow)                               [b:1,h:1,c:1]                           10                   _Sqrt_output_0   |                -10(-100.0%)         
                                                                                                                         _Constant_2_output_0   | 
------ ---------------------------------------------------------- ------------------ ------------- --------- -------------------------------- --- -------------- -------------------- ---------------------------- 
25     _Reciprocal_output_0 (Nonlinearity, Reciprocal)            [b:1,h:1,c:1]                            5                    _Pow_output_0   |                                     Nonlinearity_[15]            
------ ---------------------------------------------------------- ------------------ ------------- --------- -------------------------------- --- -------------- -------------------- ---------------------------- 
26     _Sub_2_output_0 (Eltwise, Sub)                             [b:1,h:2048,c:1]                     2,048                            input   |                                     Eltwise/sub_[18]             
                                                                                                                         _ReduceMean_output_0   | 
------ ---------------------------------------------------------- ------------------ ------------- --------- -------------------------------- --- -------------- -------------------- ---------------------------- 
28     _Pow_1_output_0 (Eltwise, Pow)                             [b:1,h:2048,c:1]                    20,480                  _Sub_2_output_0   | +4(+100.0%)                         Eltwise/pow_[23]             
                                                                                                                         _Constant_3_output_0   | 
------ ---------------------------------------------------------- ------------------ ------------- --------- -------------------------------- --- -------------- -------------------- ---------------------------- 
29     _ReduceMean_4_output_0 (Reduce, ReduceMean)                [b:1,h:1,c:1]                        4,096                  _Pow_1_output_0   | +8(+100.0%)    -2,046(-50.0%)       Reduce_/ScaleBias_[24, 25]   
------ ---------------------------------------------------------- ------------------ ------------- --------- -------------------------------- --- -------------- -------------------- ---------------------------- 
30     _Mul_3_output_0 (Eltwise, Mul)                             [b:1,h:1,c:1]                            1             _Reciprocal_output_0   |                                     Eltwise/mul_[26]             
                                                                                                                       _ReduceMean_4_output_0   | 
------ ---------------------------------------------------------- ------------------ ------------- --------- -------------------------------- --- -------------- -------------------- ---------------------------- 
32     _Pow_2_output_0 (Eltwise, Pow)                             [b:1,h:1,c:1]                           10                   _Sqrt_output_0   | +4(+100.0%)                         Eltwise/pow_[12]             
                                                                                                                         _Constant_4_output_0   | 
------ ---------------------------------------------------------- ------------------ ------------- --------- -------------------------------- --- -------------- -------------------- ---------------------------- 
33     _Reciprocal_1_output_0 (Nonlinearity, Reciprocal)          [b:1,h:1,c:1]                            5                  _Pow_2_output_0   |                                     Nonlinearity_[13]            
------ ---------------------------------------------------------- ------------------ ------------- --------- -------------------------------- --- -------------- -------------------- ---------------------------- 
35     _Pow_3_output_0 (Eltwise, Pow)                             [b:1,h:2048,c:1]                    20,480                  _Sub_2_output_0   | +4(+100.0%)                         Eltwise/pow_[19]             
                                                                                                                         _Constant_5_output_0   | 
------ ---------------------------------------------------------- ------------------ ------------- --------- -------------------------------- --- -------------- -------------------- ---------------------------- 
36     _ReduceMean_5_output_0 (Reduce, ReduceMean)                [b:1,h:1,c:1]                        4,096                  _Pow_3_output_0   | +8(+100.0%)    -2,046(-50.0%)       Reduce_/ScaleBias_[20, 21]   
------ ---------------------------------------------------------- ------------------ ------------- --------- -------------------------------- --- -------------- -------------------- ---------------------------- 
37     _Mul_4_output_0 (Eltwise, Mul)                             [b:1,h:1,c:1]                            1           _Reciprocal_1_output_0   |                                     Eltwise/mul_[22]             
                                                                                                                       _ReduceMean_5_output_0   | 
------ ---------------------------------------------------------- ------------------ ------------- --------- -------------------------------- --- -------------- -------------------- ---------------------------- 
38     _Concat_output_0 (Concat, Concat)                          [b:1,h:1,c:7]                                          _ReduceMean_output_0   |                                     Concat_[30]                  
                                                                                                                          _ReduceMax_output_0   | 
                                                                                                                             _Sqrt_1_output_0   | 
                                                                                                                              _Div_2_output_0   | 
                                                                                                                              _Mul_4_output_0   | 
                                                                                                                              _Mul_3_output_0   | 
                                                                                                                               _Sqrt_output_0   | 
------ ---------------------------------------------------------- ------------------ ------------- --------- -------------------------------- --- -------------- -------------------- ---------------------------- 
40     _Squeeze_output_0 (Reshape, Squeeze)                       [b:1,c:7]                                                  _Concat_output_0   |                                     
------ ---------------------------------------------------------- ------------------ ------------- --------- -------------------------------- --- -------------- -------------------- ---------------------------- 
45     _Slice_output_0 (Slice, Slice)                             [b:1,c:4]                                                 _Squeeze_output_0   |                                     Slice_[31]                   
------ ---------------------------------------------------------- ------------------ ------------- --------- -------------------------------- --- -------------- -------------------- ---------------------------- 
46     _convnet_conv1_con..v_output_0 (Conv2D, Conv)              [b:1,h:256,c:8]    520/2,080       131,080                    _Div_output_0   |                                     Conv2D_[33]                  
------ ---------------------------------------------------------- ------------------ ------------- --------- -------------------------------- --- -------------- -------------------- ---------------------------- 
47     _convnet_conv1_con..u_output_0 (Nonlinearity, Relu)        [b:1,h:256,c:8]                      2,048   _convnet_conv1_con..v_output_0   |                                     Nonlinearity_[34]            
------ ---------------------------------------------------------- ------------------ ------------- --------- -------------------------------- --- -------------- -------------------- ---------------------------- 
48     _convnet_conv2_1_d..v_output_0 (Conv2D, Conv)              [b:1,h:256,c:8]    2,048/8,192     522,248   _convnet_conv1_con..u_output_0   |                                     Conv2D_[35]                  
------ ---------------------------------------------------------- ------------------ ------------- --------- -------------------------------- --- -------------- -------------------- ---------------------------- 
49     _convnet_conv2_1_d..u_output_0 (Nonlinearity, Relu)        [b:1,h:256,c:8]                      2,048   _convnet_conv2_1_d..v_output_0   |                                     Nonlinearity_[36]            
------ ---------------------------------------------------------- ------------------ ------------- --------- -------------------------------- --- -------------- -------------------- ---------------------------- 
50     _convnet_conv2_1_p..v_output_0 (Conv2D, Conv)              [b:1,h:256,c:8]    72/288           16,392   _convnet_conv2_1_d..u_output_0   |                                     Conv2D_[37]                  
------ ---------------------------------------------------------- ------------------ ------------- --------- -------------------------------- --- -------------- -------------------- ---------------------------- 
51     _convnet_conv2_1_Add_output_0 (Eltwise, Add)               [b:1,h:256,c:8]                      2,048   _convnet_conv1_con..u_output_0   |                                     Eltwise/add_[38]             
                                                                                                               _convnet_conv2_1_p..v_output_0   | 
------ ---------------------------------------------------------- ------------------ ------------- --------- -------------------------------- --- -------------- -------------------- ---------------------------- 
52     _convnet_conv2_1_a..u_output_0 (Nonlinearity, Relu)        [b:1,h:256,c:8]                      2,048    _convnet_conv2_1_Add_output_0   |                                     Nonlinearity_[39]            
------ ---------------------------------------------------------- ------------------ ------------- --------- -------------------------------- --- -------------- -------------------- ---------------------------- 
53     _convnet_conv2_2_d..v_output_0 (Conv2D, Conv)              [b:1,h:256,c:8]    2,048/8,192     522,248   _convnet_conv2_1_a..u_output_0   |                                     Conv2D_[40]                  
------ ---------------------------------------------------------- ------------------ ------------- --------- -------------------------------- --- -------------- -------------------- ---------------------------- 
54     _convnet_conv2_2_d..u_output_0 (Nonlinearity, Relu)        [b:1,h:256,c:8]                      2,048   _convnet_conv2_2_d..v_output_0   |                                     Nonlinearity_[41]            
------ ---------------------------------------------------------- ------------------ ------------- --------- -------------------------------- --- -------------- -------------------- ---------------------------- 
55     _convnet_conv2_2_p..v_output_0 (Conv2D, Conv)              [b:1,h:256,c:8]    72/288           16,392   _convnet_conv2_2_d..u_output_0   |                                     Conv2D_[42]                  
------ ---------------------------------------------------------- ------------------ ------------- --------- -------------------------------- --- -------------- -------------------- ---------------------------- 
56     _convnet_conv2_2_Add_output_0 (Eltwise, Add)               [b:1,h:256,c:8]                      2,048   _convnet_conv2_1_a..u_output_0   |                                     Eltwise/add_[43]             
                                                                                                               _convnet_conv2_2_p..v_output_0   | 
------ ---------------------------------------------------------- ------------------ ------------- --------- -------------------------------- --- -------------- -------------------- ---------------------------- 
57     _convnet_conv2_2_a..u_output_0 (Nonlinearity, Relu)        [b:1,h:256,c:8]                      2,048    _convnet_conv2_2_Add_output_0   |                                     Nonlinearity_[44]            
------ ---------------------------------------------------------- ------------------ ------------- --------- -------------------------------- --- -------------- -------------------- ---------------------------- 
58     _convnet_conv2_3_d..v_output_0 (Conv2D, Conv)              [b:1,h:256,c:8]    2,048/8,192     522,248   _convnet_conv2_2_a..u_output_0   |                                     Conv2D_[45]                  
------ ---------------------------------------------------------- ------------------ ------------- --------- -------------------------------- --- -------------- -------------------- ---------------------------- 
59     _convnet_conv2_3_d..u_output_0 (Nonlinearity, Relu)        [b:1,h:256,c:8]                      2,048   _convnet_conv2_3_d..v_output_0   |                                     Nonlinearity_[46]            
------ ---------------------------------------------------------- ------------------ ------------- --------- -------------------------------- --- -------------- -------------------- ---------------------------- 
60     _convnet_conv2_3_p..v_output_0 (Conv2D, Conv)              [b:1,h:256,c:8]    72/288           16,392   _convnet_conv2_3_d..u_output_0   |                                     Conv2D_[47]                  
------ ---------------------------------------------------------- ------------------ ------------- --------- -------------------------------- --- -------------- -------------------- ---------------------------- 
61     _convnet_conv2_3_Add_output_0 (Eltwise, Add)               [b:1,h:256,c:8]                      2,048   _convnet_conv2_2_a..u_output_0   |                                     Eltwise/add_[48]             
                                                                                                               _convnet_conv2_3_p..v_output_0   | 
------ ---------------------------------------------------------- ------------------ ------------- --------- -------------------------------- --- -------------- -------------------- ---------------------------- 
62     _convnet_conv2_3_a..u_output_0 (Nonlinearity, Relu)        [b:1,h:256,c:8]                      2,048    _convnet_conv2_3_Add_output_0   |                                     Nonlinearity_[49]            
------ ---------------------------------------------------------- ------------------ ------------- --------- -------------------------------- --- -------------- -------------------- ---------------------------- 
63     _convnet_conv2_con..v_output_0 (Conv2D, Conv)              [b:1,h:32,c:8]     200/800           6,152   _convnet_conv2_3_a..u_output_0   |                                     Conv2D_[50]                  
------ ---------------------------------------------------------- ------------------ ------------- --------- -------------------------------- --- -------------- -------------------- ---------------------------- 
64     _convnet_conv2_con..u_output_0 (Nonlinearity, Relu)        [b:1,h:32,c:8]                         256   _convnet_conv2_con..v_output_0   |                                     Nonlinearity_[51]            
------ ---------------------------------------------------------- ------------------ ------------- --------- -------------------------------- --- -------------- -------------------- ---------------------------- 
65     _convnet_conv2_con..v_output_0 (Conv2D, Conv)              [b:1,h:32,c:8]     72/288            2,056   _convnet_conv2_con..u_output_0   |                                     Conv2D_[52]                  
------ ---------------------------------------------------------- ------------------ ------------- --------- -------------------------------- --- -------------- -------------------- ---------------------------- 
66     _convnet_conv2_con..u_output_0 (Nonlinearity, Relu)        [b:1,h:32,c:8]                         256   _convnet_conv2_con..v_output_0   |                                     Nonlinearity_[53]            
------ ---------------------------------------------------------- ------------------ ------------- --------- -------------------------------- --- -------------- -------------------- ---------------------------- 
67     _convnet_conv3_0_d..v_output_0 (Conv2D, Conv)              [b:1,h:32,c:8]     256/1,024         7,944   _convnet_conv2_con..u_output_0   |                                     Conv2D_[54]                  
------ ---------------------------------------------------------- ------------------ ------------- --------- -------------------------------- --- -------------- -------------------- ---------------------------- 
68     _convnet_conv3_0_d..u_output_0 (Nonlinearity, Relu)        [b:1,h:32,c:8]                         256   _convnet_conv3_0_d..v_output_0   |                                     Nonlinearity_[55]            
------ ---------------------------------------------------------- ------------------ ------------- --------- -------------------------------- --- -------------- -------------------- ---------------------------- 
69     _convnet_conv3_0_p..v_output_0 (Conv2D, Conv)              [b:1,h:32,c:8]     72/288            2,056   _convnet_conv3_0_d..u_output_0   |                                     Conv2D_[56]                  
------ ---------------------------------------------------------- ------------------ ------------- --------- -------------------------------- --- -------------- -------------------- ---------------------------- 
70     _convnet_conv3_0_Add_output_0 (Eltwise, Add)               [b:1,h:32,c:8]                         256   _convnet_conv2_con..u_output_0   |                                     Eltwise/add_[57]             
                                                                                                               _convnet_conv3_0_p..v_output_0   | 
------ ---------------------------------------------------------- ------------------ ------------- --------- -------------------------------- --- -------------- -------------------- ---------------------------- 
71     _convnet_conv3_0_a..u_output_0 (Nonlinearity, Relu)        [b:1,h:32,c:8]                         256    _convnet_conv3_0_Add_output_0   |                                     Nonlinearity_[58]            
------ ---------------------------------------------------------- ------------------ ------------- --------- -------------------------------- --- -------------- -------------------- ---------------------------- 
72     _convnet_conv3_1_d..v_output_0 (Conv2D, Conv)              [b:1,h:32,c:8]     256/1,024         7,944   _convnet_conv3_0_a..u_output_0   |                                     Conv2D_[59]                  
------ ---------------------------------------------------------- ------------------ ------------- --------- -------------------------------- --- -------------- -------------------- ---------------------------- 
73     _convnet_conv3_1_d..u_output_0 (Nonlinearity, Relu)        [b:1,h:32,c:8]                         256   _convnet_conv3_1_d..v_output_0   |                                     Nonlinearity_[60]            
------ ---------------------------------------------------------- ------------------ ------------- --------- -------------------------------- --- -------------- -------------------- ---------------------------- 
74     _convnet_conv3_1_p..v_output_0 (Conv2D, Conv)              [b:1,h:32,c:8]     72/288            2,056   _convnet_conv3_1_d..u_output_0   |                                     Conv2D_[61]                  
------ ---------------------------------------------------------- ------------------ ------------- --------- -------------------------------- --- -------------- -------------------- ---------------------------- 
75     _convnet_conv3_1_Add_output_0 (Eltwise, Add)               [b:1,h:32,c:8]                         256   _convnet_conv3_0_a..u_output_0   |                                     Eltwise/add_[62]             
                                                                                                               _convnet_conv3_1_p..v_output_0   | 
------ ---------------------------------------------------------- ------------------ ------------- --------- -------------------------------- --- -------------- -------------------- ---------------------------- 
76     _convnet_conv3_1_a..u_output_0 (Nonlinearity, Relu)        [b:1,h:32,c:8]                         256    _convnet_conv3_1_Add_output_0   |                                     Nonlinearity_[63]            
------ ---------------------------------------------------------- ------------------ ------------- --------- -------------------------------- --- -------------- -------------------- ---------------------------- 
77     _convnet_conv3_2_d..v_output_0 (Conv2D, Conv)              [b:1,h:32,c:8]     256/1,024         7,944   _convnet_conv3_1_a..u_output_0   |                                     Conv2D_[64]                  
------ ---------------------------------------------------------- ------------------ ------------- --------- -------------------------------- --- -------------- -------------------- ---------------------------- 
78     _convnet_conv3_2_d..u_output_0 (Nonlinearity, Relu)        [b:1,h:32,c:8]                         256   _convnet_conv3_2_d..v_output_0   |                                     Nonlinearity_[65]            
------ ---------------------------------------------------------- ------------------ ------------- --------- -------------------------------- --- -------------- -------------------- ---------------------------- 
79     _convnet_conv3_2_p..v_output_0 (Conv2D, Conv)              [b:1,h:32,c:8]     72/288            2,056   _convnet_conv3_2_d..u_output_0   |                                     Conv2D_[66]                  
------ ---------------------------------------------------------- ------------------ ------------- --------- -------------------------------- --- -------------- -------------------- ---------------------------- 
80     _convnet_conv3_2_Add_output_0 (Eltwise, Add)               [b:1,h:32,c:8]                         256   _convnet_conv3_1_a..u_output_0   |                                     Eltwise/add_[67]             
                                                                                                               _convnet_conv3_2_p..v_output_0   | 
------ ---------------------------------------------------------- ------------------ ------------- --------- -------------------------------- --- -------------- -------------------- ---------------------------- 
81     _convnet_conv3_2_a..u_output_0 (Nonlinearity, Relu)        [b:1,h:32,c:8]                         256    _convnet_conv3_2_Add_output_0   |                                     Nonlinearity_[68]            
------ ---------------------------------------------------------- ------------------ ------------- --------- -------------------------------- --- -------------- -------------------- ---------------------------- 
82     _convnet_conv4_con..v_output_0 (Conv2D, Conv)              [b:1,h:32,c:8]     584/2,336        18,440   _convnet_conv3_2_a..u_output_0   |                                     Conv2D_[69]                  
------ ---------------------------------------------------------- ------------------ ------------- --------- -------------------------------- --- -------------- -------------------- ---------------------------- 
83     _convnet_conv4_con..u_output_0 (Nonlinearity, Relu)        [b:1,h:32,c:8]                         256   _convnet_conv4_con..v_output_0   |                                     Nonlinearity_[70]            
------ ---------------------------------------------------------- ------------------ ------------- --------- -------------------------------- --- -------------- -------------------- ---------------------------- 
84     _convnet_gap_Globa..l_output_0 (Pool, GlobalAveragePool)   [b:1,h:1,c:8]                          256   _convnet_conv4_con..u_output_0   |                                     Pool_[71]                    
------ ---------------------------------------------------------- ------------------ ------------- --------- -------------------------------- --- -------------- -------------------- ---------------------------- 
85     _convnet_flatten_F..n_output_0 (Reshape, Flatten)          [b:1,c:8]                                    _convnet_gap_Globa..l_output_0   |                                     
------ ---------------------------------------------------------- ------------------ ------------- --------- -------------------------------- --- -------------- -------------------- ---------------------------- 
86     _Concat_1_output_0 (Concat, Concat)                        [b:1,c:12]                                   _convnet_flatten_F..n_output_0   |                                     Concat_[72]                  
                                                                                                                              _Slice_output_0   | 
------ ---------------------------------------------------------- ------------------ ------------- --------- -------------------------------- --- -------------- -------------------- ---------------------------- 
87     output (Gemm, Gemm)                                        [b:1,c:8]                              104               _Concat_1_output_0   |                -104(-100.0%)        
                                                                                                                              linear_0_weight   | 
                                                                                                                                linear_0_bias   | 
------ ---------------------------------------------------------- ------------------ ------------- --------- -------------------------------- --- -------------- -------------------- ---------------------------- 
model/c-model: macc=1,917,739/1,905,462 -12,277(-0.6%) weights=35,320/35,056 -264(-0.7%) activations=--/32,776 io=--/0



Generated C-graph summary
------------------------------------------------------------------------------------------------------------------------
model name            : ST_FRFconvTDS_1000
c-name                : frfconv
c-node #              : 74
c-array #             : 126
activations size      : 32776 (1 segment)
weights size          : 35056 (1 segment)
macc                  : 1905462
inputs                : ['input_output']
outputs               : ['output_output']

C-Arrays (126)
------ --------------------------------------------------------- ----------- ------------------------- ------------------ --------- 
c_id   name (*_array)                                            item/size   domain/mem-pool           c-type             comment   
------ --------------------------------------------------------- ----------- ------------------------- ------------------ --------- 
0      _Abs_output_0_output                                      2048/8192   activations/**default**   float                        
1      _Concat_1_output_0_output                                 12/48       activations/**default**   float                        
2      _Concat_output_0_output                                   7/28        activations/**default**   float                        
3      _Constant_2_output_0_3D                                   1/4         weights/weights           const float                  
4      _Constant_3_output_0_3D                                   1/4         weights/weights           const float                  
5      _Constant_4_output_0_3D                                   1/4         weights/weights           const float                  
6      _Constant_5_output_0_3D                                   1/4         weights/weights           const float                  
7      _Div_1_output_0_output                                    1/4         activations/**default**   float                        
8      _Div_2_output_0_output                                    1/4         activations/**default**   float                        
9      _Div_output_0_output                                      2048/8192   activations/**default**   float                        
10     _Mul_2_output_0_output                                    2048/8192   activations/**default**   float                        
11     _Mul_3_output_0_output                                    1/4         activations/**default**   float                        
12     _Mul_4_output_0_output                                    1/4         activations/**default**   float                        
13     _Mul_output_0_output                                      2048/8192   activations/**default**   float                        
14     _Pow_1_output_0_output                                    2048/8192   activations/**default**   float                        
15     _Pow_2_output_0_output                                    1/4         activations/**default**   float                        
16     _Pow_3_output_0_output                                    2048/8192   activations/**default**   float                        
17     _Pow_output_0_output                                      1/4         activations/**default**   float                        
18     _Reciprocal_1_output_0_output                             1/4         activations/**default**   float                        
19     _Reciprocal_output_0_output                               1/4         activations/**default**   float                        
20     _ReduceMax_output_0_output                                1/4         activations/**default**   float                        
21     _ReduceMean_1_output_0_Mul_output                         1/4         activations/**default**   float                        
22     _ReduceMean_1_output_0_output                             1/4         activations/**default**   float                        
23     _ReduceMean_2_output_0_Mul_output                         1/4         activations/**default**   float                        
24     _ReduceMean_2_output_0_Mul_scale                          1/4         weights/weights           const float                  
25     _ReduceMean_2_output_0_output                             1/4         activations/**default**   float                        
26     _ReduceMean_3_output_0_Mul_bias                           1/4         weights/weights           const float                  
27     _ReduceMean_3_output_0_Mul_output                         1/4         activations/**default**   float                        
28     _ReduceMean_3_output_0_Mul_scale                          1/4         weights/weights           const float                  
29     _ReduceMean_3_output_0_output                             1/4         activations/**default**   float                        
30     _ReduceMean_4_output_0_Mul_output                         1/4         activations/**default**   float                        
31     _ReduceMean_4_output_0_output                             1/4         activations/**default**   float                        
32     _ReduceMean_5_output_0_Mul_output                         1/4         activations/**default**   float                        
33     _ReduceMean_5_output_0_output                             1/4         activations/**default**   float                        
34     _ReduceMean_output_0_Mul_output                           1/4         activations/**default**   float                        
35     _ReduceMean_output_0_output                               1/4         activations/**default**   float                        
36     _Slice_output_0_output                                    4/16        activations/**default**   float                        
37     _Sqrt_1_output_0_output                                   1/4         activations/**default**   float                        
38     _Sqrt_output_0_output                                     1/4         activations/**default**   float                        
39     _Sub_1_output_0_const_3D                                  1/4         weights/weights           const float                  
40     _Sub_2_output_0_output                                    2048/8192   activations/**default**   float                        
41     _Sub_output_0_output                                      2048/8192   activations/**default**   float                        
42     _convnet_conv1_conv_conv_0_Conv_output_0_bias             8/32        weights/weights           const float                  
43     _convnet_conv1_conv_conv_0_Conv_output_0_output           2048/8192   activations/**default**   float                        
44     _convnet_conv1_conv_conv_0_Conv_output_0_scratch0         64/256      activations/**default**   float                        
45     _convnet_conv1_conv_conv_0_Conv_output_0_weights          512/2048    weights/weights           const float                  
46     _convnet_conv1_conv_conv_2_Relu_output_0_output           2048/8192   activations/**default**   float                        
47     _convnet_conv2_1_Add_output_0_output                      2048/8192   activations/**default**   float                        
48     _convnet_conv2_1_act_Relu_output_0_output                 2048/8192   activations/**default**   float                        
49     _convnet_conv2_1_dwconv_dwconv_0_Conv_output_0_bias       8/32        weights/weights           const float                  
50     _convnet_conv2_1_dwconv_dwconv_0_Conv_output_0_output     2048/8192   activations/**default**   float                        
51     _convnet_conv2_1_dwconv_dwconv_0_Conv_output_0_weights    2040/8160   weights/weights           const float                  
52     _convnet_conv2_1_dwconv_dwconv_2_Relu_output_0_output     2048/8192   activations/**default**   float                        
53     _convnet_conv2_1_pwconv_pwconv_0_Conv_output_0_bias       8/32        weights/weights           const float                  
54     _convnet_conv2_1_pwconv_pwconv_0_Conv_output_0_output     2048/8192   activations/**default**   float                        
55     _convnet_conv2_1_pwconv_pwconv_0_Conv_output_0_scratch0   8/32        activations/**default**   float                        
56     _convnet_conv2_1_pwconv_pwconv_0_Conv_output_0_weights    64/256      weights/weights           const float                  
57     _convnet_conv2_2_Add_output_0_output                      2048/8192   activations/**default**   float                        
58     _convnet_conv2_2_act_Relu_output_0_output                 2048/8192   activations/**default**   float                        
59     _convnet_conv2_2_dwconv_dwconv_0_Conv_output_0_bias       8/32        weights/weights           const float                  
60     _convnet_conv2_2_dwconv_dwconv_0_Conv_output_0_output     2048/8192   activations/**default**   float                        
61     _convnet_conv2_2_dwconv_dwconv_0_Conv_output_0_weights    2040/8160   weights/weights           const float                  
62     _convnet_conv2_2_dwconv_dwconv_2_Relu_output_0_output     2048/8192   activations/**default**   float                        
63     _convnet_conv2_2_pwconv_pwconv_0_Conv_output_0_bias       8/32        weights/weights           const float                  
64     _convnet_conv2_2_pwconv_pwconv_0_Conv_output_0_output     2048/8192   activations/**default**   float                        
65     _convnet_conv2_2_pwconv_pwconv_0_Conv_output_0_scratch0   8/32        activations/**default**   float                        
66     _convnet_conv2_2_pwconv_pwconv_0_Conv_output_0_weights    64/256      weights/weights           const float                  
67     _convnet_conv2_3_Add_output_0_output                      2048/8192   activations/**default**   float                        
68     _convnet_conv2_3_act_Relu_output_0_output                 2048/8192   activations/**default**   float                        
69     _convnet_conv2_3_dwconv_dwconv_0_Conv_output_0_bias       8/32        weights/weights           const float                  
70     _convnet_conv2_3_dwconv_dwconv_0_Conv_output_0_output     2048/8192   activations/**default**   float                        
71     _convnet_conv2_3_dwconv_dwconv_0_Conv_output_0_weights    2040/8160   weights/weights           const float                  
72     _convnet_conv2_3_dwconv_dwconv_2_Relu_output_0_output     2048/8192   activations/**default**   float                        
73     _convnet_conv2_3_pwconv_pwconv_0_Conv_output_0_bias       8/32        weights/weights           const float                  
74     _convnet_conv2_3_pwconv_pwconv_0_Conv_output_0_output     2048/8192   activations/**default**   float                        
75     _convnet_conv2_3_pwconv_pwconv_0_Conv_output_0_scratch0   8/32        activations/**default**   float                        
76     _convnet_conv2_3_pwconv_pwconv_0_Conv_output_0_weights    64/256      weights/weights           const float                  
77     _convnet_conv2_conv_conv_0_Conv_output_0_bias             8/32        weights/weights           const float                  
78     _convnet_conv2_conv_conv_0_Conv_output_0_output           256/1024    activations/**default**   float                        
79     _convnet_conv2_conv_conv_0_Conv_output_0_weights          192/768     weights/weights           const float                  
80     _convnet_conv2_conv_conv_2_Relu_output_0_output           256/1024    activations/**default**   float                        
81     _convnet_conv2_conv_conv_3_Conv_output_0_bias             8/32        weights/weights           const float                  
82     _convnet_conv2_conv_conv_3_Conv_output_0_output           256/1024    activations/**default**   float                        
83     _convnet_conv2_conv_conv_3_Conv_output_0_scratch0         8/32        activations/**default**   float                        
84     _convnet_conv2_conv_conv_3_Conv_output_0_weights          64/256      weights/weights           const float                  
85     _convnet_conv2_conv_conv_5_Relu_output_0_output           256/1024    activations/**default**   float                        
86     _convnet_conv3_0_Add_output_0_output                      256/1024    activations/**default**   float                        
87     _convnet_conv3_0_act_Relu_output_0_output                 256/1024    activations/**default**   float                        
88     _convnet_conv3_0_dwconv_dwconv_0_Conv_output_0_bias       8/32        weights/weights           const float                  
89     _convnet_conv3_0_dwconv_dwconv_0_Conv_output_0_output     256/1024    activations/**default**   float                        
90     _convnet_conv3_0_dwconv_dwconv_0_Conv_output_0_weights    248/992     weights/weights           const float                  
91     _convnet_conv3_0_dwconv_dwconv_2_Relu_output_0_output     256/1024    activations/**default**   float                        
92     _convnet_conv3_0_pwconv_pwconv_0_Conv_output_0_bias       8/32        weights/weights           const float                  
93     _convnet_conv3_0_pwconv_pwconv_0_Conv_output_0_output     256/1024    activations/**default**   float                        
94     _convnet_conv3_0_pwconv_pwconv_0_Conv_output_0_scratch0   8/32        activations/**default**   float                        
95     _convnet_conv3_0_pwconv_pwconv_0_Conv_output_0_weights    64/256      weights/weights           const float                  
96     _convnet_conv3_1_Add_output_0_output                      256/1024    activations/**default**   float                        
97     _convnet_conv3_1_act_Relu_output_0_output                 256/1024    activations/**default**   float                        
98     _convnet_conv3_1_dwconv_dwconv_0_Conv_output_0_bias       8/32        weights/weights           const float                  
99     _convnet_conv3_1_dwconv_dwconv_0_Conv_output_0_output     256/1024    activations/**default**   float                        
100    _convnet_conv3_1_dwconv_dwconv_0_Conv_output_0_weights    248/992     weights/weights           const float                  
101    _convnet_conv3_1_dwconv_dwconv_2_Relu_output_0_output     256/1024    activations/**default**   float                        
102    _convnet_conv3_1_pwconv_pwconv_0_Conv_output_0_bias       8/32        weights/weights           const float                  
103    _convnet_conv3_1_pwconv_pwconv_0_Conv_output_0_output     256/1024    activations/**default**   float                        
104    _convnet_conv3_1_pwconv_pwconv_0_Conv_output_0_scratch0   8/32        activations/**default**   float                        
105    _convnet_conv3_1_pwconv_pwconv_0_Conv_output_0_weights    64/256      weights/weights           const float                  
106    _convnet_conv3_2_Add_output_0_output                      256/1024    activations/**default**   float                        
107    _convnet_conv3_2_act_Relu_output_0_output                 256/1024    activations/**default**   float                        
108    _convnet_conv3_2_dwconv_dwconv_0_Conv_output_0_bias       8/32        weights/weights           const float                  
109    _convnet_conv3_2_dwconv_dwconv_0_Conv_output_0_output     256/1024    activations/**default**   float                        
110    _convnet_conv3_2_dwconv_dwconv_0_Conv_output_0_weights    248/992     weights/weights           const float                  
111    _convnet_conv3_2_dwconv_dwconv_2_Relu_output_0_output     256/1024    activations/**default**   float                        
112    _convnet_conv3_2_pwconv_pwconv_0_Conv_output_0_bias       8/32        weights/weights           const float                  
113    _convnet_conv3_2_pwconv_pwconv_0_Conv_output_0_output     256/1024    activations/**default**   float                        
114    _convnet_conv3_2_pwconv_pwconv_0_Conv_output_0_scratch0   8/32        activations/**default**   float                        
115    _convnet_conv3_2_pwconv_pwconv_0_Conv_output_0_weights    64/256      weights/weights           const float                  
116    _convnet_conv4_conv4_0_Conv_output_0_bias                 8/32        weights/weights           const float                  
117    _convnet_conv4_conv4_0_Conv_output_0_output               256/1024    activations/**default**   float                        
118    _convnet_conv4_conv4_0_Conv_output_0_scratch0             72/288      activations/**default**   float                        
119    _convnet_conv4_conv4_0_Conv_output_0_weights              576/2304    weights/weights           const float                  
120    _convnet_conv4_conv4_2_Relu_output_0_output               256/1024    activations/**default**   float                        
121    _convnet_gap_GlobalAveragePool_output_0_output            8/32        activations/**default**   float                        
122    input_output                                              2048/8192   activations/**default**   float              /input    
123    output_bias                                               8/32        weights/weights           const float                  
124    output_output                                             8/32        activations/**default**   float              /output   
125    output_weights                                            96/112      weights/weights           const lut4_float             
------ --------------------------------------------------------- ----------- ------------------------- ------------------ --------- 

C-Layers (74)
------ ------------------------------------------------ ---- --------------- -------- ------ ------------------------------------------------------------ --------------------- 
c_id   name (*_layer)                                   id   layer_type      macc     rom    tensors                                                      shape (array id)      
------ ------------------------------------------------ ---- --------------- -------- ------ ------------------------------------------------------------ --------------------- 
0      _Mul_2_output_0                                  19   Eltwise/mul     2048     0      I: input_output                                              f32(1x2048x1) (122)   
                                                                                             I: input_output                                              f32(1x2048x1) (122)   
                                                                                             O: _Mul_2_output_0_output                                    f32(1x2048x1) (10)    
------ ------------------------------------------------ ---- --------------- -------- ------ ------------------------------------------------------------ --------------------- 
1      _ReduceMean_3_output_0                           20   Reduce          2048     0      I: _Mul_2_output_0_output                                    f32(1x2048x1) (10)    
                                                                                             O: _ReduceMean_3_output_0_output                             f32(1x1x1) (29)       
------ ------------------------------------------------ ---- --------------- -------- ------ ------------------------------------------------------------ --------------------- 
2      _ReduceMean_3_output_0_Mul                       20   ScaleBias       2        8      I: _ReduceMean_3_output_0_output                             f32(1x1x1) (29)       
                                                                                             W: _ReduceMean_3_output_0_Mul_scale                          f32(1) (28)           
                                                                                             W: _ReduceMean_3_output_0_Mul_bias                           f32(1) (26)           
                                                                                             O: _ReduceMean_3_output_0_Mul_output                         f32(1x1x1) (27)       
------ ------------------------------------------------ ---- --------------- -------- ------ ------------------------------------------------------------ --------------------- 
3      _Sqrt_1_output_0                                 21   Nonlinearity    12       0      I: _ReduceMean_3_output_0_Mul_output                         f32(1x1x1) (27)       
                                                                                             O: _Sqrt_1_output_0_output                                   f32(1x1x1) (37)       
------ ------------------------------------------------ ---- --------------- -------- ------ ------------------------------------------------------------ --------------------- 
4      _ReduceMean_1_output_0                           5    Reduce          2048     0      I: input_output                                              f32(1x2048x1) (122)   
                                                                                             O: _ReduceMean_1_output_0_output                             f32(1x1x1) (22)       
------ ------------------------------------------------ ---- --------------- -------- ------ ------------------------------------------------------------ --------------------- 
5      _ReduceMean_1_output_0_Mul                       5    ScaleBias       2        8      I: _ReduceMean_1_output_0_output                             f32(1x1x1) (22)       
                                                                                             W: _ReduceMean_3_output_0_Mul_scale                          f32(1) (28)           
                                                                                             W: _ReduceMean_3_output_0_Mul_bias                           f32(1) (26)           
                                                                                             O: _ReduceMean_1_output_0_Mul_output                         f32(1x1x1) (21)       
------ ------------------------------------------------ ---- --------------- -------- ------ ------------------------------------------------------------ --------------------- 
6      _Sub_output_0                                    10   Eltwise/sub     2048     0      I: input_output                                              f32(1x2048x1) (122)   
                                                                                             I: _ReduceMean_1_output_0_Mul_output                         f32(1x2048x1) (122)   
                                                                                             O: _Sub_output_0_output                                      f32(1x2048x1) (41)    
------ ------------------------------------------------ ---- --------------- -------- ------ ------------------------------------------------------------ --------------------- 
7      _Mul_output_0                                    11   Eltwise/mul     2048     0      I: _Sub_output_0_output                                      f32(1x2048x1) (41)    
                                                                                             I: _Sub_output_0_output                                      f32(1x2048x1) (41)    
                                                                                             O: _Mul_output_0_output                                      f32(1x2048x1) (13)    
------ ------------------------------------------------ ---- --------------- -------- ------ ------------------------------------------------------------ --------------------- 
8      _ReduceMean_2_output_0                           14   Reduce          2048     0      I: _Mul_output_0_output                                      f32(1x2048x1) (13)    
                                                                                             O: _ReduceMean_2_output_0_output                             f32(1x1x1) (25)       
------ ------------------------------------------------ ---- --------------- -------- ------ ------------------------------------------------------------ --------------------- 
9      _ReduceMean_2_output_0_Mul                       14   ScaleBias       2        8      I: _ReduceMean_2_output_0_output                             f32(1x1x1) (25)       
                                                                                             W: _ReduceMean_2_output_0_Mul_scale                          f32(1) (24)           
                                                                                             W: _ReduceMean_3_output_0_Mul_bias                           f32(1) (26)           
                                                                                             O: _ReduceMean_2_output_0_Mul_output                         f32(1x1x1) (23)       
------ ------------------------------------------------ ---- --------------- -------- ------ ------------------------------------------------------------ --------------------- 
10     _Div_1_output_0                                  17   Eltwise/div     5        4      I: _ReduceMean_2_output_0_Mul_output                         f32(1x1x1) (23)       
                                                                                             W: _Sub_1_output_0_const_3D                                  f32(1x1) (39)         
                                                                                             O: _Div_1_output_0_output                                    f32(1x1x1) (7)        
------ ------------------------------------------------ ---- --------------- -------- ------ ------------------------------------------------------------ --------------------- 
11     _Sqrt_output_0                                   18   Nonlinearity    12       0      I: _Div_1_output_0_output                                    f32(1x1x1) (7)        
                                                                                             O: _Sqrt_output_0_output                                     f32(1x1x1) (38)       
------ ------------------------------------------------ ---- --------------- -------- ------ ------------------------------------------------------------ --------------------- 
12     _Pow_2_output_0                                  32   Eltwise/pow     10       4      I: _Sqrt_output_0_output                                     f32(1x1x1) (38)       
                                                                                             W: _Constant_4_output_0_3D                                   f32(1x1) (5)          
                                                                                             O: _Pow_2_output_0_output                                    f32(1x1x1) (15)       
------ ------------------------------------------------ ---- --------------- -------- ------ ------------------------------------------------------------ --------------------- 
13     _Reciprocal_1_output_0                           33   Nonlinearity    5        0      I: _Pow_2_output_0_output                                    f32(1x1x1) (15)       
                                                                                             O: _Reciprocal_1_output_0_output                             f32(1x1x1) (18)       
------ ------------------------------------------------ ---- --------------- -------- ------ ------------------------------------------------------------ --------------------- 
14     _Pow_output_0                                    24   Eltwise/pow     10       4      I: _Sqrt_output_0_output                                     f32(1x1x1) (38)       
                                                                                             W: _Constant_2_output_0_3D                                   f32(1x1) (3)          
                                                                                             O: _Pow_output_0_output                                      f32(1x1x1) (17)       
------ ------------------------------------------------ ---- --------------- -------- ------ ------------------------------------------------------------ --------------------- 
15     _Reciprocal_output_0                             25   Nonlinearity    5        0      I: _Pow_output_0_output                                      f32(1x1x1) (17)       
                                                                                             O: _Reciprocal_output_0_output                               f32(1x1x1) (19)       
------ ------------------------------------------------ ---- --------------- -------- ------ ------------------------------------------------------------ --------------------- 
16     _ReduceMean_output_0                             4    Reduce          2048     0      I: input_output                                              f32(1x2048x1) (122)   
                                                                                             O: _ReduceMean_output_0_output                               f32(1x1x1) (35)       
------ ------------------------------------------------ ---- --------------- -------- ------ ------------------------------------------------------------ --------------------- 
17     _ReduceMean_output_0_Mul                         4    ScaleBias       2        8      I: _ReduceMean_output_0_output                               f32(1x1x1) (35)       
                                                                                             W: _ReduceMean_3_output_0_Mul_scale                          f32(1) (28)           
                                                                                             W: _ReduceMean_3_output_0_Mul_bias                           f32(1) (26)           
                                                                                             O: _ReduceMean_output_0_Mul_output                           f32(1x1x1) (34)       
------ ------------------------------------------------ ---- --------------- -------- ------ ------------------------------------------------------------ --------------------- 
18     _Sub_2_output_0                                  26   Eltwise/sub     2048     0      I: input_output                                              f32(1x2048x1) (122)   
                                                                                             I: _ReduceMean_output_0_Mul_output                           f32(1x2048x1) (122)   
                                                                                             O: _Sub_2_output_0_output                                    f32(1x2048x1) (40)    
------ ------------------------------------------------ ---- --------------- -------- ------ ------------------------------------------------------------ --------------------- 
19     _Pow_3_output_0                                  35   Eltwise/pow     20480    4      I: _Sub_2_output_0_output                                    f32(1x2048x1) (40)    
                                                                                             W: _Constant_5_output_0_3D                                   f32(1x1) (6)          
                                                                                             O: _Pow_3_output_0_output                                    f32(1x2048x1) (16)    
------ ------------------------------------------------ ---- --------------- -------- ------ ------------------------------------------------------------ --------------------- 
20     _ReduceMean_5_output_0                           36   Reduce          2048     0      I: _Pow_3_output_0_output                                    f32(1x2048x1) (16)    
                                                                                             O: _ReduceMean_5_output_0_output                             f32(1x1x1) (33)       
------ ------------------------------------------------ ---- --------------- -------- ------ ------------------------------------------------------------ --------------------- 
21     _ReduceMean_5_output_0_Mul                       36   ScaleBias       2        8      I: _ReduceMean_5_output_0_output                             f32(1x1x1) (33)       
                                                                                             W: _ReduceMean_3_output_0_Mul_scale                          f32(1) (28)           
                                                                                             W: _ReduceMean_3_output_0_Mul_bias                           f32(1) (26)           
                                                                                             O: _ReduceMean_5_output_0_Mul_output                         f32(1x1x1) (32)       
------ ------------------------------------------------ ---- --------------- -------- ------ ------------------------------------------------------------ --------------------- 
22     _Mul_4_output_0                                  37   Eltwise/mul     1        0      I: _Reciprocal_1_output_0_output                             f32(1x1x1) (18)       
                                                                                             I: _ReduceMean_5_output_0_Mul_output                         f32(1x1x1) (18)       
                                                                                             O: _Mul_4_output_0_output                                    f32(1x1x1) (12)       
------ ------------------------------------------------ ---- --------------- -------- ------ ------------------------------------------------------------ --------------------- 
23     _Pow_1_output_0                                  28   Eltwise/pow     20480    4      I: _Sub_2_output_0_output                                    f32(1x2048x1) (40)    
                                                                                             W: _Constant_3_output_0_3D                                   f32(1x1) (4)          
                                                                                             O: _Pow_1_output_0_output                                    f32(1x2048x1) (14)    
------ ------------------------------------------------ ---- --------------- -------- ------ ------------------------------------------------------------ --------------------- 
24     _ReduceMean_4_output_0                           29   Reduce          2048     0      I: _Pow_1_output_0_output                                    f32(1x2048x1) (14)    
                                                                                             O: _ReduceMean_4_output_0_output                             f32(1x1x1) (31)       
------ ------------------------------------------------ ---- --------------- -------- ------ ------------------------------------------------------------ --------------------- 
25     _ReduceMean_4_output_0_Mul                       29   ScaleBias       2        8      I: _ReduceMean_4_output_0_output                             f32(1x1x1) (31)       
                                                                                             W: _ReduceMean_3_output_0_Mul_scale                          f32(1) (28)           
                                                                                             W: _ReduceMean_3_output_0_Mul_bias                           f32(1) (26)           
                                                                                             O: _ReduceMean_4_output_0_Mul_output                         f32(1x1x1) (30)       
------ ------------------------------------------------ ---- --------------- -------- ------ ------------------------------------------------------------ --------------------- 
26     _Mul_3_output_0                                  30   Eltwise/mul     1        0      I: _Reciprocal_output_0_output                               f32(1x1x1) (19)       
                                                                                             I: _ReduceMean_4_output_0_Mul_output                         f32(1x1x1) (19)       
                                                                                             O: _Mul_3_output_0_output                                    f32(1x1x1) (11)       
------ ------------------------------------------------ ---- --------------- -------- ------ ------------------------------------------------------------ --------------------- 
27     _Abs_output_0                                    1    Nonlinearity    4096     0      I: input_output                                              f32(1x2048x1) (122)   
                                                                                             O: _Abs_output_0_output                                      f32(1x2048x1) (0)     
------ ------------------------------------------------ ---- --------------- -------- ------ ------------------------------------------------------------ --------------------- 
28     _ReduceMax_output_0                              2    Reduce          2048     0      I: _Abs_output_0_output                                      f32(1x2048x1) (0)     
                                                                                             O: _ReduceMax_output_0_output                                f32(1x1x1) (20)       
------ ------------------------------------------------ ---- --------------- -------- ------ ------------------------------------------------------------ --------------------- 
29     _Div_2_output_0                                  22   Eltwise/div     5        0      I: _ReduceMax_output_0_output                                f32(1x1x1) (20)       
                                                                                             I: _Sqrt_1_output_0_output                                   f32(1x1x1) (20)       
                                                                                             O: _Div_2_output_0_output                                    f32(1x1x1) (8)        
------ ------------------------------------------------ ---- --------------- -------- ------ ------------------------------------------------------------ --------------------- 
30     _Concat_output_0                                 38   Concat          0        0      I: _ReduceMean_output_0_Mul_output                           f32(1x1x1) (34)       
                                                                                             I: _ReduceMax_output_0_output                                f32(1x1x1) (34)       
                                                                                             I: _Sqrt_1_output_0_output                                   f32(1x1x1) (34)       
                                                                                             I: _Div_2_output_0_output                                    f32(1x1x1) (34)       
                                                                                             I: _Mul_4_output_0_output                                    f32(1x1x1) (34)       
                                                                                             I: _Mul_3_output_0_output                                    f32(1x1x1) (34)       
                                                                                             I: _Sqrt_output_0_output                                     f32(1x1x1) (34)       
                                                                                             O: _Concat_output_0_output                                   f32(1x1x7) (2)        
------ ------------------------------------------------ ---- --------------- -------- ------ ------------------------------------------------------------ --------------------- 
31     _Slice_output_0                                  45   Slice           0        0      I: _Concat_output_0_output                                   f32(1x1x7) (2)        
                                                                                             O: _Slice_output_0_output                                    f32(1x4) (36)         
------ ------------------------------------------------ ---- --------------- -------- ------ ------------------------------------------------------------ --------------------- 
32     _Div_output_0                                    3    Eltwise/div     10240    0      I: input_output                                              f32(1x2048x1) (122)   
                                                                                             I: _ReduceMax_output_0_output                                f32(1x2048x1) (122)   
                                                                                             O: _Div_output_0_output                                      f32(1x2048x1) (9)     
------ ------------------------------------------------ ---- --------------- -------- ------ ------------------------------------------------------------ --------------------- 
33     _convnet_conv1_conv_conv_0_Conv_output_0         46   Conv2D          131080   2080   I: _Div_output_0_output                                      f32(1x2048x1) (9)     
                                                                                             S: _convnet_conv1_conv_conv_0_Conv_output_0_scratch0                               
                                                                                             W: _convnet_conv1_conv_conv_0_Conv_output_0_weights          f32(8x64x1x1) (45)    
                                                                                             W: _convnet_conv1_conv_conv_0_Conv_output_0_bias             f32(8) (42)           
                                                                                             O: _convnet_conv1_conv_conv_0_Conv_output_0_output           f32(1x256x8) (43)     
------ ------------------------------------------------ ---- --------------- -------- ------ ------------------------------------------------------------ --------------------- 
34     _convnet_conv1_conv_conv_2_Relu_output_0         47   Nonlinearity    2048     0      I: _convnet_conv1_conv_conv_0_Conv_output_0_output           f32(1x256x8) (43)     
                                                                                             O: _convnet_conv1_conv_conv_2_Relu_output_0_output           f32(1x256x8) (46)     
------ ------------------------------------------------ ---- --------------- -------- ------ ------------------------------------------------------------ --------------------- 
35     _convnet_conv2_1_dwconv_dwconv_0_Conv_output_0   48   Conv2D          522248   8192   I: _convnet_conv1_conv_conv_2_Relu_output_0_output           f32(1x256x8) (46)     
                                                                                             W: _convnet_conv2_1_dwconv_dwconv_0_Conv_output_0_weights    f32(8x255x1x1) (51)   
                                                                                             W: _convnet_conv2_1_dwconv_dwconv_0_Conv_output_0_bias       f32(8) (49)           
                                                                                             O: _convnet_conv2_1_dwconv_dwconv_0_Conv_output_0_output     f32(1x256x8) (50)     
------ ------------------------------------------------ ---- --------------- -------- ------ ------------------------------------------------------------ --------------------- 
36     _convnet_conv2_1_dwconv_dwconv_2_Relu_output_0   49   Nonlinearity    2048     0      I: _convnet_conv2_1_dwconv_dwconv_0_Conv_output_0_output     f32(1x256x8) (50)     
                                                                                             O: _convnet_conv2_1_dwconv_dwconv_2_Relu_output_0_output     f32(1x256x8) (52)     
------ ------------------------------------------------ ---- --------------- -------- ------ ------------------------------------------------------------ --------------------- 
37     _convnet_conv2_1_pwconv_pwconv_0_Conv_output_0   50   Conv2D          16392    288    I: _convnet_conv2_1_dwconv_dwconv_2_Relu_output_0_output     f32(1x256x8) (52)     
                                                                                             S: _convnet_conv2_1_pwconv_pwconv_0_Conv_output_0_scratch0                         
                                                                                             W: _convnet_conv2_1_pwconv_pwconv_0_Conv_output_0_weights    f32(8x1x1x8) (56)     
                                                                                             W: _convnet_conv2_1_pwconv_pwconv_0_Conv_output_0_bias       f32(8) (53)           
                                                                                             O: _convnet_conv2_1_pwconv_pwconv_0_Conv_output_0_output     f32(1x256x8) (54)     
------ ------------------------------------------------ ---- --------------- -------- ------ ------------------------------------------------------------ --------------------- 
38     _convnet_conv2_1_Add_output_0                    51   Eltwise/add     2048     0      I: _convnet_conv1_conv_conv_2_Relu_output_0_output           f32(1x256x8) (46)     
                                                                                             I: _convnet_conv2_1_pwconv_pwconv_0_Conv_output_0_output     f32(1x256x8) (46)     
                                                                                             O: _convnet_conv2_1_Add_output_0_output                      f32(1x256x8) (47)     
------ ------------------------------------------------ ---- --------------- -------- ------ ------------------------------------------------------------ --------------------- 
39     _convnet_conv2_1_act_Relu_output_0               52   Nonlinearity    2048     0      I: _convnet_conv2_1_Add_output_0_output                      f32(1x256x8) (47)     
                                                                                             O: _convnet_conv2_1_act_Relu_output_0_output                 f32(1x256x8) (48)     
------ ------------------------------------------------ ---- --------------- -------- ------ ------------------------------------------------------------ --------------------- 
40     _convnet_conv2_2_dwconv_dwconv_0_Conv_output_0   53   Conv2D          522248   8192   I: _convnet_conv2_1_act_Relu_output_0_output                 f32(1x256x8) (48)     
                                                                                             W: _convnet_conv2_2_dwconv_dwconv_0_Conv_output_0_weights    f32(8x255x1x1) (61)   
                                                                                             W: _convnet_conv2_2_dwconv_dwconv_0_Conv_output_0_bias       f32(8) (59)           
                                                                                             O: _convnet_conv2_2_dwconv_dwconv_0_Conv_output_0_output     f32(1x256x8) (60)     
------ ------------------------------------------------ ---- --------------- -------- ------ ------------------------------------------------------------ --------------------- 
41     _convnet_conv2_2_dwconv_dwconv_2_Relu_output_0   54   Nonlinearity    2048     0      I: _convnet_conv2_2_dwconv_dwconv_0_Conv_output_0_output     f32(1x256x8) (60)     
                                                                                             O: _convnet_conv2_2_dwconv_dwconv_2_Relu_output_0_output     f32(1x256x8) (62)     
------ ------------------------------------------------ ---- --------------- -------- ------ ------------------------------------------------------------ --------------------- 
42     _convnet_conv2_2_pwconv_pwconv_0_Conv_output_0   55   Conv2D          16392    288    I: _convnet_conv2_2_dwconv_dwconv_2_Relu_output_0_output     f32(1x256x8) (62)     
                                                                                             S: _convnet_conv2_2_pwconv_pwconv_0_Conv_output_0_scratch0                         
                                                                                             W: _convnet_conv2_2_pwconv_pwconv_0_Conv_output_0_weights    f32(8x1x1x8) (66)     
                                                                                             W: _convnet_conv2_2_pwconv_pwconv_0_Conv_output_0_bias       f32(8) (63)           
                                                                                             O: _convnet_conv2_2_pwconv_pwconv_0_Conv_output_0_output     f32(1x256x8) (64)     
------ ------------------------------------------------ ---- --------------- -------- ------ ------------------------------------------------------------ --------------------- 
43     _convnet_conv2_2_Add_output_0                    56   Eltwise/add     2048     0      I: _convnet_conv2_1_act_Relu_output_0_output                 f32(1x256x8) (48)     
                                                                                             I: _convnet_conv2_2_pwconv_pwconv_0_Conv_output_0_output     f32(1x256x8) (48)     
                                                                                             O: _convnet_conv2_2_Add_output_0_output                      f32(1x256x8) (57)     
------ ------------------------------------------------ ---- --------------- -------- ------ ------------------------------------------------------------ --------------------- 
44     _convnet_conv2_2_act_Relu_output_0               57   Nonlinearity    2048     0      I: _convnet_conv2_2_Add_output_0_output                      f32(1x256x8) (57)     
                                                                                             O: _convnet_conv2_2_act_Relu_output_0_output                 f32(1x256x8) (58)     
------ ------------------------------------------------ ---- --------------- -------- ------ ------------------------------------------------------------ --------------------- 
45     _convnet_conv2_3_dwconv_dwconv_0_Conv_output_0   58   Conv2D          522248   8192   I: _convnet_conv2_2_act_Relu_output_0_output                 f32(1x256x8) (58)     
                                                                                             W: _convnet_conv2_3_dwconv_dwconv_0_Conv_output_0_weights    f32(8x255x1x1) (71)   
                                                                                             W: _convnet_conv2_3_dwconv_dwconv_0_Conv_output_0_bias       f32(8) (69)           
                                                                                             O: _convnet_conv2_3_dwconv_dwconv_0_Conv_output_0_output     f32(1x256x8) (70)     
------ ------------------------------------------------ ---- --------------- -------- ------ ------------------------------------------------------------ --------------------- 
46     _convnet_conv2_3_dwconv_dwconv_2_Relu_output_0   59   Nonlinearity    2048     0      I: _convnet_conv2_3_dwconv_dwconv_0_Conv_output_0_output     f32(1x256x8) (70)     
                                                                                             O: _convnet_conv2_3_dwconv_dwconv_2_Relu_output_0_output     f32(1x256x8) (72)     
------ ------------------------------------------------ ---- --------------- -------- ------ ------------------------------------------------------------ --------------------- 
47     _convnet_conv2_3_pwconv_pwconv_0_Conv_output_0   60   Conv2D          16392    288    I: _convnet_conv2_3_dwconv_dwconv_2_Relu_output_0_output     f32(1x256x8) (72)     
                                                                                             S: _convnet_conv2_3_pwconv_pwconv_0_Conv_output_0_scratch0                         
                                                                                             W: _convnet_conv2_3_pwconv_pwconv_0_Conv_output_0_weights    f32(8x1x1x8) (76)     
                                                                                             W: _convnet_conv2_3_pwconv_pwconv_0_Conv_output_0_bias       f32(8) (73)           
                                                                                             O: _convnet_conv2_3_pwconv_pwconv_0_Conv_output_0_output     f32(1x256x8) (74)     
------ ------------------------------------------------ ---- --------------- -------- ------ ------------------------------------------------------------ --------------------- 
48     _convnet_conv2_3_Add_output_0                    61   Eltwise/add     2048     0      I: _convnet_conv2_2_act_Relu_output_0_output                 f32(1x256x8) (58)     
                                                                                             I: _convnet_conv2_3_pwconv_pwconv_0_Conv_output_0_output     f32(1x256x8) (58)     
                                                                                             O: _convnet_conv2_3_Add_output_0_output                      f32(1x256x8) (67)     
------ ------------------------------------------------ ---- --------------- -------- ------ ------------------------------------------------------------ --------------------- 
49     _convnet_conv2_3_act_Relu_output_0               62   Nonlinearity    2048     0      I: _convnet_conv2_3_Add_output_0_output                      f32(1x256x8) (67)     
                                                                                             O: _convnet_conv2_3_act_Relu_output_0_output                 f32(1x256x8) (68)     
------ ------------------------------------------------ ---- --------------- -------- ------ ------------------------------------------------------------ --------------------- 
50     _convnet_conv2_conv_conv_0_Conv_output_0         63   Conv2D          6152     800    I: _convnet_conv2_3_act_Relu_output_0_output                 f32(1x256x8) (68)     
                                                                                             W: _convnet_conv2_conv_conv_0_Conv_output_0_weights          f32(8x24x1x1) (79)    
                                                                                             W: _convnet_conv2_conv_conv_0_Conv_output_0_bias             f32(8) (77)           
                                                                                             O: _convnet_conv2_conv_conv_0_Conv_output_0_output           f32(1x32x8) (78)      
------ ------------------------------------------------ ---- --------------- -------- ------ ------------------------------------------------------------ --------------------- 
51     _convnet_conv2_conv_conv_2_Relu_output_0         64   Nonlinearity    256      0      I: _convnet_conv2_conv_conv_0_Conv_output_0_output           f32(1x32x8) (78)      
                                                                                             O: _convnet_conv2_conv_conv_2_Relu_output_0_output           f32(1x32x8) (80)      
------ ------------------------------------------------ ---- --------------- -------- ------ ------------------------------------------------------------ --------------------- 
52     _convnet_conv2_conv_conv_3_Conv_output_0         65   Conv2D          2056     288    I: _convnet_conv2_conv_conv_2_Relu_output_0_output           f32(1x32x8) (80)      
                                                                                             S: _convnet_conv2_conv_conv_3_Conv_output_0_scratch0                               
                                                                                             W: _convnet_conv2_conv_conv_3_Conv_output_0_weights          f32(8x1x1x8) (84)     
                                                                                             W: _convnet_conv2_conv_conv_3_Conv_output_0_bias             f32(8) (81)           
                                                                                             O: _convnet_conv2_conv_conv_3_Conv_output_0_output           f32(1x32x8) (82)      
------ ------------------------------------------------ ---- --------------- -------- ------ ------------------------------------------------------------ --------------------- 
53     _convnet_conv2_conv_conv_5_Relu_output_0         66   Nonlinearity    256      0      I: _convnet_conv2_conv_conv_3_Conv_output_0_output           f32(1x32x8) (82)      
                                                                                             O: _convnet_conv2_conv_conv_5_Relu_output_0_output           f32(1x32x8) (85)      
------ ------------------------------------------------ ---- --------------- -------- ------ ------------------------------------------------------------ --------------------- 
54     _convnet_conv3_0_dwconv_dwconv_0_Conv_output_0   67   Conv2D          7944     1024   I: _convnet_conv2_conv_conv_5_Relu_output_0_output           f32(1x32x8) (85)      
                                                                                             W: _convnet_conv3_0_dwconv_dwconv_0_Conv_output_0_weights    f32(8x31x1x1) (90)    
                                                                                             W: _convnet_conv3_0_dwconv_dwconv_0_Conv_output_0_bias       f32(8) (88)           
                                                                                             O: _convnet_conv3_0_dwconv_dwconv_0_Conv_output_0_output     f32(1x32x8) (89)      
------ ------------------------------------------------ ---- --------------- -------- ------ ------------------------------------------------------------ --------------------- 
55     _convnet_conv3_0_dwconv_dwconv_2_Relu_output_0   68   Nonlinearity    256      0      I: _convnet_conv3_0_dwconv_dwconv_0_Conv_output_0_output     f32(1x32x8) (89)      
                                                                                             O: _convnet_conv3_0_dwconv_dwconv_2_Relu_output_0_output     f32(1x32x8) (91)      
------ ------------------------------------------------ ---- --------------- -------- ------ ------------------------------------------------------------ --------------------- 
56     _convnet_conv3_0_pwconv_pwconv_0_Conv_output_0   69   Conv2D          2056     288    I: _convnet_conv3_0_dwconv_dwconv_2_Relu_output_0_output     f32(1x32x8) (91)      
                                                                                             S: _convnet_conv3_0_pwconv_pwconv_0_Conv_output_0_scratch0                         
                                                                                             W: _convnet_conv3_0_pwconv_pwconv_0_Conv_output_0_weights    f32(8x1x1x8) (95)     
                                                                                             W: _convnet_conv3_0_pwconv_pwconv_0_Conv_output_0_bias       f32(8) (92)           
                                                                                             O: _convnet_conv3_0_pwconv_pwconv_0_Conv_output_0_output     f32(1x32x8) (93)      
------ ------------------------------------------------ ---- --------------- -------- ------ ------------------------------------------------------------ --------------------- 
57     _convnet_conv3_0_Add_output_0                    70   Eltwise/add     256      0      I: _convnet_conv2_conv_conv_5_Relu_output_0_output           f32(1x32x8) (85)      
                                                                                             I: _convnet_conv3_0_pwconv_pwconv_0_Conv_output_0_output     f32(1x32x8) (85)      
                                                                                             O: _convnet_conv3_0_Add_output_0_output                      f32(1x32x8) (86)      
------ ------------------------------------------------ ---- --------------- -------- ------ ------------------------------------------------------------ --------------------- 
58     _convnet_conv3_0_act_Relu_output_0               71   Nonlinearity    256      0      I: _convnet_conv3_0_Add_output_0_output                      f32(1x32x8) (86)      
                                                                                             O: _convnet_conv3_0_act_Relu_output_0_output                 f32(1x32x8) (87)      
------ ------------------------------------------------ ---- --------------- -------- ------ ------------------------------------------------------------ --------------------- 
59     _convnet_conv3_1_dwconv_dwconv_0_Conv_output_0   72   Conv2D          7944     1024   I: _convnet_conv3_0_act_Relu_output_0_output                 f32(1x32x8) (87)      
                                                                                             W: _convnet_conv3_1_dwconv_dwconv_0_Conv_output_0_weights    f32(8x31x1x1) (100)   
                                                                                             W: _convnet_conv3_1_dwconv_dwconv_0_Conv_output_0_bias       f32(8) (98)           
                                                                                             O: _convnet_conv3_1_dwconv_dwconv_0_Conv_output_0_output     f32(1x32x8) (99)      
------ ------------------------------------------------ ---- --------------- -------- ------ ------------------------------------------------------------ --------------------- 
60     _convnet_conv3_1_dwconv_dwconv_2_Relu_output_0   73   Nonlinearity    256      0      I: _convnet_conv3_1_dwconv_dwconv_0_Conv_output_0_output     f32(1x32x8) (99)      
                                                                                             O: _convnet_conv3_1_dwconv_dwconv_2_Relu_output_0_output     f32(1x32x8) (101)     
------ ------------------------------------------------ ---- --------------- -------- ------ ------------------------------------------------------------ --------------------- 
61     _convnet_conv3_1_pwconv_pwconv_0_Conv_output_0   74   Conv2D          2056     288    I: _convnet_conv3_1_dwconv_dwconv_2_Relu_output_0_output     f32(1x32x8) (101)     
                                                                                             S: _convnet_conv3_1_pwconv_pwconv_0_Conv_output_0_scratch0                         
                                                                                             W: _convnet_conv3_1_pwconv_pwconv_0_Conv_output_0_weights    f32(8x1x1x8) (105)    
                                                                                             W: _convnet_conv3_1_pwconv_pwconv_0_Conv_output_0_bias       f32(8) (102)          
                                                                                             O: _convnet_conv3_1_pwconv_pwconv_0_Conv_output_0_output     f32(1x32x8) (103)     
------ ------------------------------------------------ ---- --------------- -------- ------ ------------------------------------------------------------ --------------------- 
62     _convnet_conv3_1_Add_output_0                    75   Eltwise/add     256      0      I: _convnet_conv3_0_act_Relu_output_0_output                 f32(1x32x8) (87)      
                                                                                             I: _convnet_conv3_1_pwconv_pwconv_0_Conv_output_0_output     f32(1x32x8) (87)      
                                                                                             O: _convnet_conv3_1_Add_output_0_output                      f32(1x32x8) (96)      
------ ------------------------------------------------ ---- --------------- -------- ------ ------------------------------------------------------------ --------------------- 
63     _convnet_conv3_1_act_Relu_output_0               76   Nonlinearity    256      0      I: _convnet_conv3_1_Add_output_0_output                      f32(1x32x8) (96)      
                                                                                             O: _convnet_conv3_1_act_Relu_output_0_output                 f32(1x32x8) (97)      
------ ------------------------------------------------ ---- --------------- -------- ------ ------------------------------------------------------------ --------------------- 
64     _convnet_conv3_2_dwconv_dwconv_0_Conv_output_0   77   Conv2D          7944     1024   I: _convnet_conv3_1_act_Relu_output_0_output                 f32(1x32x8) (97)      
                                                                                             W: _convnet_conv3_2_dwconv_dwconv_0_Conv_output_0_weights    f32(8x31x1x1) (110)   
                                                                                             W: _convnet_conv3_2_dwconv_dwconv_0_Conv_output_0_bias       f32(8) (108)          
                                                                                             O: _convnet_conv3_2_dwconv_dwconv_0_Conv_output_0_output     f32(1x32x8) (109)     
------ ------------------------------------------------ ---- --------------- -------- ------ ------------------------------------------------------------ --------------------- 
65     _convnet_conv3_2_dwconv_dwconv_2_Relu_output_0   78   Nonlinearity    256      0      I: _convnet_conv3_2_dwconv_dwconv_0_Conv_output_0_output     f32(1x32x8) (109)     
                                                                                             O: _convnet_conv3_2_dwconv_dwconv_2_Relu_output_0_output     f32(1x32x8) (111)     
------ ------------------------------------------------ ---- --------------- -------- ------ ------------------------------------------------------------ --------------------- 
66     _convnet_conv3_2_pwconv_pwconv_0_Conv_output_0   79   Conv2D          2056     288    I: _convnet_conv3_2_dwconv_dwconv_2_Relu_output_0_output     f32(1x32x8) (111)     
                                                                                             S: _convnet_conv3_2_pwconv_pwconv_0_Conv_output_0_scratch0                         
                                                                                             W: _convnet_conv3_2_pwconv_pwconv_0_Conv_output_0_weights    f32(8x1x1x8) (115)    
                                                                                             W: _convnet_conv3_2_pwconv_pwconv_0_Conv_output_0_bias       f32(8) (112)          
                                                                                             O: _convnet_conv3_2_pwconv_pwconv_0_Conv_output_0_output     f32(1x32x8) (113)     
------ ------------------------------------------------ ---- --------------- -------- ------ ------------------------------------------------------------ --------------------- 
67     _convnet_conv3_2_Add_output_0                    80   Eltwise/add     256      0      I: _convnet_conv3_1_act_Relu_output_0_output                 f32(1x32x8) (97)      
                                                                                             I: _convnet_conv3_2_pwconv_pwconv_0_Conv_output_0_output     f32(1x32x8) (97)      
                                                                                             O: _convnet_conv3_2_Add_output_0_output                      f32(1x32x8) (106)     
------ ------------------------------------------------ ---- --------------- -------- ------ ------------------------------------------------------------ --------------------- 
68     _convnet_conv3_2_act_Relu_output_0               81   Nonlinearity    256      0      I: _convnet_conv3_2_Add_output_0_output                      f32(1x32x8) (106)     
                                                                                             O: _convnet_conv3_2_act_Relu_output_0_output                 f32(1x32x8) (107)     
------ ------------------------------------------------ ---- --------------- -------- ------ ------------------------------------------------------------ --------------------- 
69     _convnet_conv4_conv4_0_Conv_output_0             82   Conv2D          18440    2336   I: _convnet_conv3_2_act_Relu_output_0_output                 f32(1x32x8) (107)     
                                                                                             S: _convnet_conv4_conv4_0_Conv_output_0_scratch0                                   
                                                                                             W: _convnet_conv4_conv4_0_Conv_output_0_weights              f32(8x9x1x8) (119)    
                                                                                             W: _convnet_conv4_conv4_0_Conv_output_0_bias                 f32(8) (116)          
                                                                                             O: _convnet_conv4_conv4_0_Conv_output_0_output               f32(1x32x8) (117)     
------ ------------------------------------------------ ---- --------------- -------- ------ ------------------------------------------------------------ --------------------- 
70     _convnet_conv4_conv4_2_Relu_output_0             83   Nonlinearity    256      0      I: _convnet_conv4_conv4_0_Conv_output_0_output               f32(1x32x8) (117)     
                                                                                             O: _convnet_conv4_conv4_2_Relu_output_0_output               f32(1x32x8) (120)     
------ ------------------------------------------------ ---- --------------- -------- ------ ------------------------------------------------------------ --------------------- 
71     _convnet_gap_GlobalAveragePool_output_0          84   Pool            256      0      I: _convnet_conv4_conv4_2_Relu_output_0_output               f32(1x32x8) (120)     
                                                                                             O: _convnet_gap_GlobalAveragePool_output_0_output            f32(1x1x8) (121)      
------ ------------------------------------------------ ---- --------------- -------- ------ ------------------------------------------------------------ --------------------- 
72     _Concat_1_output_0                               86   Concat          0        0      I: _convnet_gap_GlobalAveragePool_output_0_output            f32(1x1x8) (121)      
                                                                                             I: _Slice_output_0_output                                    f32(1x1x8) (121)      
                                                                                             O: _Concat_1_output_0_output                                 f32(1x12) (1)         
------ ------------------------------------------------ ---- --------------- -------- ------ ------------------------------------------------------------ --------------------- 
73     output                                           87   Dense           104      144    I: _Concat_1_output_0_output                                 f32(1x12) (1)         
                                                                                             W: output_weights                                            c4(8x12) (125)        
                                                                                             W: output_bias                                               f32(8) (123)          
                                                                                             O: output_output                                             f32(1x8) (124)        
------ ------------------------------------------------ ---- --------------- -------- ------ ------------------------------------------------------------ --------------------- 



Number of operations per c-layer
------- ------ ----------------------------------------------- ----------- -------------- 
c_id    m_id   name (type)                                             #op           type 
------- ------ ----------------------------------------------- ----------- -------------- 
0       19     _Mul_2_output_0 (Eltwise/mul)                         2,048     op_f32_f32 
1       20     _ReduceMean_3_output_0 (Reduce)                       2,048   smul_f32_f32 
2       20     _ReduceMean_3_output_0_Mul (ScaleBias)                    2   smul_f32_f32 
3       21     _Sqrt_1_output_0 (Nonlinearity)                          12     op_f32_f32 
4       5      _ReduceMean_1_output_0 (Reduce)                       2,048   smul_f32_f32 
5       5      _ReduceMean_1_output_0_Mul (ScaleBias)                    2   smul_f32_f32 
6       10     _Sub_output_0 (Eltwise/sub)                           2,048     op_f32_f32 
7       11     _Mul_output_0 (Eltwise/mul)                           2,048     op_f32_f32 
8       14     _ReduceMean_2_output_0 (Reduce)                       2,048   smul_f32_f32 
9       14     _ReduceMean_2_output_0_Mul (ScaleBias)                    2   smul_f32_f32 
10      17     _Div_1_output_0 (Eltwise/div)                             5     op_f32_f32 
11      18     _Sqrt_output_0 (Nonlinearity)                            12     op_f32_f32 
12      32     _Pow_2_output_0 (Eltwise/pow)                            10     op_f32_f32 
13      33     _Reciprocal_1_output_0 (Nonlinearity)                     5     op_f32_f32 
14      24     _Pow_output_0 (Eltwise/pow)                              10     op_f32_f32 
15      25     _Reciprocal_output_0 (Nonlinearity)                       5     op_f32_f32 
16      4      _ReduceMean_output_0 (Reduce)                         2,048   smul_f32_f32 
17      4      _ReduceMean_output_0_Mul (ScaleBias)                      2   smul_f32_f32 
18      26     _Sub_2_output_0 (Eltwise/sub)                         2,048     op_f32_f32 
19      35     _Pow_3_output_0 (Eltwise/pow)                        20,480     op_f32_f32 
20      36     _ReduceMean_5_output_0 (Reduce)                       2,048   smul_f32_f32 
21      36     _ReduceMean_5_output_0_Mul (ScaleBias)                    2   smul_f32_f32 
22      37     _Mul_4_output_0 (Eltwise/mul)                             1     op_f32_f32 
23      28     _Pow_1_output_0 (Eltwise/pow)                        20,480     op_f32_f32 
24      29     _ReduceMean_4_output_0 (Reduce)                       2,048   smul_f32_f32 
25      29     _ReduceMean_4_output_0_Mul (ScaleBias)                    2   smul_f32_f32 
26      30     _Mul_3_output_0 (Eltwise/mul)                             1     op_f32_f32 
27      1      _Abs_output_0 (Nonlinearity)                          4,096     op_f32_f32 
28      2      _ReduceMax_output_0 (Reduce)                          2,048   smul_f32_f32 
29      22     _Div_2_output_0 (Eltwise/div)                             5     op_f32_f32 
30      38     _Concat_output_0 (Concat)                                 0   smul_f32_f32 
31      45     _Slice_output_0 (Slice)                                   0   smul_f32_f32 
32      3      _Div_output_0 (Eltwise/div)                          10,240     op_f32_f32 
33      46     _convnet_conv1_con..v_output_0 (Conv2D)             131,080   smul_f32_f32 
34      47     _convnet_conv1_con..u_output_0 (Nonlinearity)         2,048     op_f32_f32 
35      48     _convnet_conv2_1_d..v_output_0 (Conv2D)             522,248   smul_f32_f32 
36      49     _convnet_conv2_1_d..u_output_0 (Nonlinearity)         2,048     op_f32_f32 
37      50     _convnet_conv2_1_p..v_output_0 (Conv2D)              16,392   smul_f32_f32 
38      51     _convnet_conv2_1_Add_output_0 (Eltwise/add)           2,048     op_f32_f32 
39      52     _convnet_conv2_1_a..u_output_0 (Nonlinearity)         2,048     op_f32_f32 
40      53     _convnet_conv2_2_d..v_output_0 (Conv2D)             522,248   smul_f32_f32 
41      54     _convnet_conv2_2_d..u_output_0 (Nonlinearity)         2,048     op_f32_f32 
42      55     _convnet_conv2_2_p..v_output_0 (Conv2D)              16,392   smul_f32_f32 
43      56     _convnet_conv2_2_Add_output_0 (Eltwise/add)           2,048     op_f32_f32 
44      57     _convnet_conv2_2_a..u_output_0 (Nonlinearity)         2,048     op_f32_f32 
45      58     _convnet_conv2_3_d..v_output_0 (Conv2D)             522,248   smul_f32_f32 
46      59     _convnet_conv2_3_d..u_output_0 (Nonlinearity)         2,048     op_f32_f32 
47      60     _convnet_conv2_3_p..v_output_0 (Conv2D)              16,392   smul_f32_f32 
48      61     _convnet_conv2_3_Add_output_0 (Eltwise/add)           2,048     op_f32_f32 
49      62     _convnet_conv2_3_a..u_output_0 (Nonlinearity)         2,048     op_f32_f32 
50      63     _convnet_conv2_con..v_output_0 (Conv2D)               6,152   smul_f32_f32 
51      64     _convnet_conv2_con..u_output_0 (Nonlinearity)           256     op_f32_f32 
52      65     _convnet_conv2_con..v_output_0 (Conv2D)               2,056   smul_f32_f32 
53      66     _convnet_conv2_con..u_output_0 (Nonlinearity)           256     op_f32_f32 
54      67     _convnet_conv3_0_d..v_output_0 (Conv2D)               7,944   smul_f32_f32 
55      68     _convnet_conv3_0_d..u_output_0 (Nonlinearity)           256     op_f32_f32 
56      69     _convnet_conv3_0_p..v_output_0 (Conv2D)               2,056   smul_f32_f32 
57      70     _convnet_conv3_0_Add_output_0 (Eltwise/add)             256     op_f32_f32 
58      71     _convnet_conv3_0_a..u_output_0 (Nonlinearity)           256     op_f32_f32 
59      72     _convnet_conv3_1_d..v_output_0 (Conv2D)               7,944   smul_f32_f32 
60      73     _convnet_conv3_1_d..u_output_0 (Nonlinearity)           256     op_f32_f32 
61      74     _convnet_conv3_1_p..v_output_0 (Conv2D)               2,056   smul_f32_f32 
62      75     _convnet_conv3_1_Add_output_0 (Eltwise/add)             256     op_f32_f32 
63      76     _convnet_conv3_1_a..u_output_0 (Nonlinearity)           256     op_f32_f32 
64      77     _convnet_conv3_2_d..v_output_0 (Conv2D)               7,944   smul_f32_f32 
65      78     _convnet_conv3_2_d..u_output_0 (Nonlinearity)           256     op_f32_f32 
66      79     _convnet_conv3_2_p..v_output_0 (Conv2D)               2,056   smul_f32_f32 
67      80     _convnet_conv3_2_Add_output_0 (Eltwise/add)             256     op_f32_f32 
68      81     _convnet_conv3_2_a..u_output_0 (Nonlinearity)           256     op_f32_f32 
69      82     _convnet_conv4_con..v_output_0 (Conv2D)              18,440   smul_f32_f32 
70      83     _convnet_conv4_con..u_output_0 (Nonlinearity)           256     op_f32_f32 
71      84     _convnet_gap_Globa..l_output_0 (Pool)                   256   smul_f32_f32 
72      86     _Concat_1_output_0 (Concat)                               0   smul_f32_f32 
73      87     output (Dense)                                          104    smul_f32_f4 
------- ------ ----------------------------------------------- ----------- -------------- 
total                                                            1,905,462 

Number of operation types
---------------- ----------- ----------- 
operation type             #           % 
---------------- ----------- ----------- 
op_f32_f32            87,106        4.6% 
smul_f32_f32       1,818,252       95.4% 
smul_f32_f4              104        0.0% 

Complexity report (model)
------ ------------------------------------------ ------------------------- ------------------------- ---------- 
m_id   name                                       c_macc                    c_rom                     c_id       
------ ------------------------------------------ ------------------------- ------------------------- ---------- 
24     _Constant_2_output_0                       |                  0.0%   |                  0.0%   [14]       
1      _Constant_3_output_0                       |                  0.2%   |                  0.0%   [27]       
2      _Constant_4_output_0                       |                  0.1%   |                  0.0%   [28]       
3      _Constant_5_output_0                       |                  0.5%   |                  0.0%   [32]       
87     linear_0_weight                            |                  0.0%   |                  0.4%   [73]       
4      _ReduceMean_output_0                       |                  0.1%   |                  0.0%   [16, 17]   
5      _ReduceMean_1_output_0                     |                  0.1%   |                  0.0%   [4, 5]     
10     _Sub_output_0                              |                  0.1%   |                  0.0%   [6]        
11     _Mul_output_0                              |                  0.1%   |                  0.0%   [7]        
14     _Mul_1_output_0                            |                  0.1%   |                  0.0%   [8, 9]     
17     _Div_1_output_0                            |                  0.0%   |                  0.0%   [10]       
18     _Sqrt_output_0                             |                  0.0%   |                  0.0%   [11]       
19     _Mul_2_output_0                            |                  0.1%   |                  0.0%   [0]        
20     _ReduceMean_3_output_0                     |                  0.1%   |                  0.0%   [1, 2]     
21     _Sqrt_1_output_0                           |                  0.0%   |                  0.0%   [3]        
22     _Div_2_output_0                            |                  0.0%   |                  0.0%   [29]       
25     _Reciprocal_output_0                       |                  0.0%   |                  0.0%   [15]       
26     _Sub_2_output_0                            |                  0.1%   |                  0.0%   [18]       
28     _Pow_1_output_0                            |                  1.1%   |                  0.0%   [23]       
29     _ReduceMean_4_output_0                     |                  0.1%   |                  0.0%   [24, 25]   
30     _Mul_3_output_0                            |                  0.0%   |                  0.0%   [26]       
32     _Pow_2_output_0                            |                  0.0%   |                  0.0%   [12]       
33     _Reciprocal_1_output_0                     |                  0.0%   |                  0.0%   [13]       
35     _Pow_3_output_0                            |                  1.1%   |                  0.0%   [19]       
36     _ReduceMean_5_output_0                     |                  0.1%   |                  0.0%   [20, 21]   
37     _Mul_4_output_0                            |                  0.0%   |                  0.0%   [22]       
38     _Concat_output_0                           |                  0.0%   |                  0.0%   [30]       
45     _Slice_output_0                            |                  0.0%   |                  0.0%   [31]       
46     _convnet_conv1_conv_conv_0_Conv_output_0   ||||               6.9%   ||||               5.9%   [33]       
47     _convnet_conv1_conv_conv_2_Relu_output_0   |                  0.1%   |                  0.0%   [34]       
48     _convnet_conv2_1_dwconv_dwco..v_output_0   ||||||||||||||||  27.4%   ||||||||||||||||  23.4%   [35]       
49     _convnet_conv2_1_dwconv_dwco..u_output_0   |                  0.1%   |                  0.0%   [36]       
50     _convnet_conv2_1_pwconv_pwco..v_output_0   |                  0.9%   |                  0.8%   [37]       
51     _convnet_conv2_1_Add_output_0              |                  0.1%   |                  0.0%   [38]       
52     _convnet_conv2_1_act_Relu_output_0         |                  0.1%   |                  0.0%   [39]       
53     _convnet_conv2_2_dwconv_dwco..v_output_0   ||||||||||||||||  27.4%   ||||||||||||||||  23.4%   [40]       
54     _convnet_conv2_2_dwconv_dwco..u_output_0   |                  0.1%   |                  0.0%   [41]       
55     _convnet_conv2_2_pwconv_pwco..v_output_0   |                  0.9%   |                  0.8%   [42]       
56     _convnet_conv2_2_Add_output_0              |                  0.1%   |                  0.0%   [43]       
57     _convnet_conv2_2_act_Relu_output_0         |                  0.1%   |                  0.0%   [44]       
58     _convnet_conv2_3_dwconv_dwco..v_output_0   ||||||||||||||||  27.4%   ||||||||||||||||  23.4%   [45]       
59     _convnet_conv2_3_dwconv_dwco..u_output_0   |                  0.1%   |                  0.0%   [46]       
60     _convnet_conv2_3_pwconv_pwco..v_output_0   |                  0.9%   |                  0.8%   [47]       
61     _convnet_conv2_3_Add_output_0              |                  0.1%   |                  0.0%   [48]       
62     _convnet_conv2_3_act_Relu_output_0         |                  0.1%   |                  0.0%   [49]       
63     _convnet_conv2_conv_conv_0_Conv_output_0   |                  0.3%   ||                 2.3%   [50]       
64     _convnet_conv2_conv_conv_2_Relu_output_0   |                  0.0%   |                  0.0%   [51]       
65     _convnet_conv2_conv_conv_3_Conv_output_0   |                  0.1%   |                  0.8%   [52]       
66     _convnet_conv2_conv_conv_5_Relu_output_0   |                  0.0%   |                  0.0%   [53]       
67     _convnet_conv3_0_dwconv_dwco..v_output_0   |                  0.4%   ||                 2.9%   [54]       
68     _convnet_conv3_0_dwconv_dwco..u_output_0   |                  0.0%   |                  0.0%   [55]       
69     _convnet_conv3_0_pwconv_pwco..v_output_0   |                  0.1%   |                  0.8%   [56]       
70     _convnet_conv3_0_Add_output_0              |                  0.0%   |                  0.0%   [57]       
71     _convnet_conv3_0_act_Relu_output_0         |                  0.0%   |                  0.0%   [58]       
72     _convnet_conv3_1_dwconv_dwco..v_output_0   |                  0.4%   ||                 2.9%   [59]       
73     _convnet_conv3_1_dwconv_dwco..u_output_0   |                  0.0%   |                  0.0%   [60]       
74     _convnet_conv3_1_pwconv_pwco..v_output_0   |                  0.1%   |                  0.8%   [61]       
75     _convnet_conv3_1_Add_output_0              |                  0.0%   |                  0.0%   [62]       
76     _convnet_conv3_1_act_Relu_output_0         |                  0.0%   |                  0.0%   [63]       
77     _convnet_conv3_2_dwconv_dwco..v_output_0   |                  0.4%   ||                 2.9%   [64]       
78     _convnet_conv3_2_dwconv_dwco..u_output_0   |                  0.0%   |                  0.0%   [65]       
79     _convnet_conv3_2_pwconv_pwco..v_output_0   |                  0.1%   |                  0.8%   [66]       
80     _convnet_conv3_2_Add_output_0              |                  0.0%   |                  0.0%   [67]       
81     _convnet_conv3_2_act_Relu_output_0         |                  0.0%   |                  0.0%   [68]       
82     _convnet_conv4_conv4_0_Conv_output_0       |                  1.0%   |||||              6.7%   [69]       
83     _convnet_conv4_conv4_2_Relu_output_0       |                  0.0%   |                  0.0%   [70]       
84     _convnet_gap_GlobalAveragePool_output_0    |                  0.0%   |                  0.0%   [71]       
86     _Concat_1_output_0                         |                  0.0%   |                  0.0%   [72]       
------ ------------------------------------------ ------------------------- ------------------------- ---------- 
macc=1,905,462 weights=35,056 act=32,776 ram_io=0
 
 Requested memory size by section - "stm32f4" target
 ------------------------------ -------- -------- -------- -------- 
 module                             text   rodata     data      bss 
 ------------------------------ -------- -------- -------- -------- 
 NetworkRuntime1020_CM4_GCC.a     15,160        0        0        0 
 frfconv.o                         2,276      785   17,560      704 
 frfconv_data.o                       48       16       88        0 
 lib (toolchain)*                  1,928       24        0        0 
 ------------------------------ -------- -------- -------- -------- 
 RT total**                       19,412      825   17,648      704 
 ------------------------------ -------- -------- -------- -------- 
 weights                               0   35,056        0        0 
 activations                           0        0        0   32,776 
 io                                    0        0        0        0 
 ------------------------------ -------- -------- -------- -------- 
 TOTAL                            19,412   35,881   17,648   33,480 
 ------------------------------ -------- -------- -------- -------- 
 *  toolchain objects (libm/libgcc*)
 ** RT AI runtime objects (kernels+infrastructure)
  
  Summary - "stm32f4" target
  ---------------------------------------------------
               FLASH (ro)      %*   RAM (rw)       % 
  ---------------------------------------------------
  RT total         37,885   51.9%     18,352   35.9% 
  ---------------------------------------------------
  TOTAL            72,941             51,128         
  ---------------------------------------------------
  *  rt/total


Generated files (7)
----------------------------------------------------------------- 
C:\Users\user\.stm32cubemx\frfconv_output\frfconv_data_params.h   
C:\Users\user\.stm32cubemx\frfconv_output\frfconv_data_params.c   
C:\Users\user\.stm32cubemx\frfconv_output\frfconv_data.h          
C:\Users\user\.stm32cubemx\frfconv_output\frfconv_data.c          
C:\Users\user\.stm32cubemx\frfconv_output\frfconv_config.h        
C:\Users\user\.stm32cubemx\frfconv_output\frfconv.h               
C:\Users\user\.stm32cubemx\frfconv_output\frfconv.c               
